model.pt (torch_old, 19887 bytes, 6 tensors)

l.weight f4 [100, 21]
-0.2080232 -0.03562378 0.21724156 0.13899377 0.138542 0.19762678 0.17405428 -0.07291249
0.08084969 0.21046619 0.1932877 -0.09679108 -0.026803624 -0.10949854 -0.09544571 -0.20521943
-0.15646921 -0.03315584 -0.21872187 -0.20256206 0.050242692 -0.059887312 0.048279632 0.0113100195
0.029321874 0.2149865 0.21123534 -0.15415837 0.084823765 -0.16899213 -0.18335871 0.20511074
-0.106155604 -0.09061754 0.14141569 -0.21011429 -0.10306276 0.17041266 0.063255854 -0.042339418
-0.0002940255 0.019511893 0.13148107 -0.20769516 0.17979231 0.17054822 -0.055141672 -0.0015338808
0.047637254 0.0048560766 -0.08988626 0.09401968 0.19473381 0.00893254 0.14900106 -0.21344721
0.15792632 0.05471701 0.030994564 0.13045877 -0.13444121 0.2071046 -0.055536985 -0.0520858
-0.13889101 -0.047306754 -0.10504373 -0.021857528 -0.084965326 0.047394592 -0.0930466 0.12574504
-0.16188146 0.10518374 -0.000986514 0.10610224 0.21157171 0.17440416 0.05598047 -0.034943733
0.034958713 -0.025518725 0.031732466 -0.18725023 0.015878422 0.08833183 -0.092946425 -0.040794775
-0.19917248 -0.07829862 -0.08378958 -0.09001865 -0.1773043 -0.14809158 -0.04176808 -0.0016766769
-0.10980382 -0.00058710127 -0.0018801725 -0.015276393 0.15249339 -0.014152115 -0.008393118 -0.11525965
-0.10994091 0.07917082 0.1833013 0.21560574 0.022777213 0.0850532 0.041499496 0.2152078
-0.14157481 -0.19337879 -0.21094017 0.20353276 -0.2061891 -0.019050231 -0.050025653 -0.0046343748
0.11239352 -0.20647183 0.1620361 -0.09565419 -0.012552498 0.10816824 0.024904866 -0.13458657
-0.058000546 -0.16259034 0.06749317 -0.18484893 0.123678006 -0.122568086 -0.0739442 0.042811427
-0.1285412 0.19817743 0.1427225 0.001514262 0.08047251 0.07684821 0.029429218 -0.16183622
-0.16867992 -0.14948404 -0.20600344 0.03224159 0.062191032 0.05841229 -0.020118004 0.18206857
-0.051987033 -0.07270607 -0.08686995 0.07158103 0.13931131 0.17014071 -0.030770548 0.1314646
-0.08062193 0.21484324 -6.857039e-05 -0.02614506 0.16327618 -0.1489418 0.013633021 -0.061626293
0.06552824 0.0014446223 -0.09417593 -0.2062284 0.087331675 -0.039208584 -0.17961751 -0.13541354
0.11031346 -0.18308437 0.112216026 -0.09343627 -0.10972038 0.20107172 0.05369717 0.16336784
0.109327875 -0.17808628 -0.18486588 0.09816145 -0.07132456 0.02558695 -0.08747802 -0.07587149
0.20620158 0.056033477 -0.07407188 0.1619101 0.051461518 0.20754573 -0.11025205 -0.15217519
-0.18529317 0.03888354 0.15400507 0.03315484 0.0374543 0.11302771 -0.19058914 -0.12812865
0.17891042 -0.1252103 -0.1422985 -0.2153508 0.021150598 0.08543645 -0.17321229 -0.115686625
-0.054986425 -0.10254021 -0.06530816 -0.10935497 0.15464434 0.19826715 0.10184036 0.02765821
-0.0029476834 0.13339202 -0.17281272 -0.13444868 -0.12267148 -0.14053233 -0.049360447 -0.20166379
-0.10204403 -0.058143303 0.020476796 0.14949663 0.15863843 -0.028088268 0.19095542 0.21419911
0.0021498806 -0.112414666 -0.049745373 0.21044728 0.15600802 0.12361796 0.17453437 0.02440848
-0.08078517 -0.16091208 0.12611632 -0.19699827 0.17191063 -0.16503319 -0.13593847 -0.20075762
00000000: 0904 55be 3eea 11bd 9274 5e3e 6254 0e3e
00000010: f4dd 0d3e ad5e 4a3e 493b 323e 2553 95bd
00000020: 8694 a53d 7384 573e 36ed 453e 673a c6bd
00000030: 4693 dbbc c540 e0bd 0a79 c3bd 0b25 52be
00000040: 7739 20be 6bce 07bd a0f8 5fbe 6e6c 4fbe
00000050: 48cb 4d3d 664c 75bd ddc0 453d a94d 393c
00000060: 6d34 f03c 6c25 5c3e 144e 583e b1db 1dbe
00000070: 15b8 ad3d 460c 2dbe 63c2 3bbe 8d08 523e
00000080: 1c68 d9bd b095 b9bd 46cf 103e 3328 57be
00000090: 9112 d3bd a880 2e3e 498c 813d 196c 2dbd
000000a0: 6f27 9ab9 68d7 9f3c f9a2 063e 0aae 54be
000000b0: 7a1b 383e 31a4 2e3e 3cdc 61bd 800c c9ba
000000c0: 481f 433d b91f 9f3b 4a16 b8bd 648d c03d
000000d0: 4d68 473e ca59 123c bc93 183e e891 5abe
000000e0: 70b7 213e f21e 603d 50e8 fd3c fc96 053e
000000f0: f5aa 09be 3a13 543e c07a 63bd eb57 55bd
00000100: 7239 0ebe bac4 41bd 2b21 d7bd 8f0e b3bc
00000110: 4d02 aebd d520 423d 378f bebd 4fc3 003e
00000120: 41c4 25be 936a d73d eb4d 81ba 224c d93d
00000130: 41a6 583e 0197 323e c74b 653d 2921 0fbd
00000140: de30 0f3d a50c d1bc e7f9 013d 86be 3fbe
00000150: 7713 823c 52e7 b43d b25a bebd 6c18 27bd
00000160: dff3 4bbe 075b a0bd df99 abbd b35b b8bd
00000170: 428f 35be 52a5 17be 0215 2bbd f1c3 dbba
00000180: d3e0 e0bd b3e7 19ba 1f70 f6ba d649 7abc
00000190: 3a27 1c3e 46de 67bc 4a83 09bc 400d ecbd
000001a0: b328 e1bd 5024 a23d 56b3 3b3e c0c7 5c3e
000001b0: 4797 ba3c 5f30 ae3d 60fb 293d 6f5f 5c3e
000001c0: fdf8 10be 1705 46be b300 58be e46a 503e
000001d0: 3c23 53be 3b0f 9cbc b3e7 4cbd f4db 97bb
000001e0: 932e e63d 5a6d 53be cbec 253e 58e6 c3bd
000001f0: fea8 4dbc 4f87 dd3d 4a05 cc3c 10d1 09be
00000200: fb91 6dbd 157e 26be dc39 8a3d 0a49 3dbe
00000210: e54a fd3d fa04 fbbd 0f70 97bd 095b 2f3d
00000220: 4ea0 03be 06ef 4a3e d925 123e 347a c63a
00000230: c5ce a43d 9862 9d3d 8b15 f13c 65b8 25be
00000240: 6eba 2cbe 5812 19be 91f2 52be c20f 043d
00000250: 06bc 7e3d ba41 6f3d 83ce a4bc 2f70 3a3e
00000260: 5bf0 54bd ece6 94bd dfe8 b1bd 1399 923d
00000270: a0a7 0e3e 5e39 2e3e 8412 fcbc a89e 063e
00000280: 1c1d a5bd deff 5b3e 73cd 8fb8 2a2e d6bc
00000290: df31 273e 3384 18be 095d 5f3c da6b 7cbd
000002a0: ab33 863d 7b59 bd3a 4fdf c0bd 8a2d 53be
000002b0: f3da b23d 2e99 20bd a7ed 37be d9a9 0abe
000002c0: 06ec e13d 787a 3bbe 84d1 e53d 845b bfbd
000002d0: 14b5 e0bd bfe5 4d3e 90f1 5b3d e649 273e
000002e0: 4be7 df3d 405c 36be 7b4d 3dbe df08 c93d
000002f0: 9c12 92bd b99b d13c ad27 b3bd 8362 9bbd
00000300: 8226 533e 5c83 653d ffb2 97bd c3cb 253e
00000310: 50c9 523d de86 543e d4cb e1bd d0d3 1bbe
00000320: 7ebd 3dbe 5944 1f3d 81b3 1d3e 5fcd 073d
00000330: ae69 193d 127b e73d cd29 43be 2834 03be
00000340: 4b34 373e 2137 00be b3b6 11be ec84 5cbe
00000350: 0544 ad3c 4ef9 ae3d 905e 31be 1ced ecbd
00000360: 7239 61bd 9a00 d2bd 49c0 85bd 80f5 dfbd
00000370: 165b 1e3e 8b06 4b3e ae91 d03d 7893 e23c
00000380: ec2d 41bb eb97 083e d1f5 30be eaac 09be
00000390: 2f3b fbbd b5e7 0fbe 2e2e 4abd f480 4ebe
000003a0: 76fc d0bd ac27 6ebd f4be a73c a515 193e
000003b0: 1d72 223e 5e19 e6bc d189 433e 0357 5b3e
000003c0: 03e5 0c3b a939 e6bd cec1 4bbd 7e7f 573e
000003d0: 91c0 1f3e 6a2b fd3d 23b9 323e 4bf4 c73c
000003e0: b272 a5bd 23c6 24be a324 013e eab9 49be
000003f0: 5709 303e 76fe 28be 7433 0bbe 6893 4dbe

h.weight f4 [2, 100]
0.019451942 -0.045956712 -0.04085294 -0.090020865 -0.059771042 0.0063534304 -0.054315846 -0.03785201
0.09256599 -0.013666301 0.024178455 0.04170993 -0.06824809 0.041624226 -0.02276388 0.0851824
-0.042126678 -0.11770463 0.0499792 0.022622872 -0.05362108 -0.008157785 -0.060196083 0.038312137
0.14445555 -0.09674122 -0.07517414 0.0835577 0.07100504 0.04290007 -0.112977155 0.020660546
0.030171249 0.06526129 -0.05853698 0.0039081085 -0.015625592 -0.11760242 -0.0841321 -0.04843066
-0.05882676 0.043069504 0.017711557 0.06176684 -0.015430668 -0.06253334 0.10246919 0.05025275
0.038881566 -0.006570245 -0.076897964 0.012574536 0.017313698 0.04098045 0.038107693 -0.091748096
0.021086777 0.023035614 0.05337077 0.07035429 0.11109129 0.012191748 0.08727522 -0.100600004
0.013931104 -0.054649223 0.04660166 -0.08352039 0.028093452 0.011589305 0.019757198 -0.024949087
0.06851301 -0.077549435 0.036259416 0.09640371 0.021225592 0.060777638 0.06505409 -0.077633955
0.0006042316 0.03999026 0.061207496 0.039839327 -0.048610684 -0.002091177 -0.044675667 -0.028106399
-0.047037687 0.011428514 -0.015348874 -0.091943465 0.01677805 -0.0156285 0.10077636 0.042192906
-0.064120725 -0.073971644 -0.08537523 -0.11980166 0.13473918 -0.07410898 -0.052973684 -0.04854641
0.012795328 -0.10305944 -0.029641505 -0.059569415 0.006272967 -0.06154896 0.021844417 0.040403012
0.014981952 0.0675358 -0.056209013 -0.06636191 -0.06373506 0.034740195 0.0042928187 0.011154693
0.04348604 0.069744885 0.054084618 -0.0071904096 0.027017629 -0.070632696 -0.09735245 0.047091793
-0.028183116 -0.039570823 -0.08815952 -0.09126751 0.054107565 0.03157419 -0.083454974 0.013164492
-0.052496184 -0.010969789 -0.13560612 -0.09214301 0.076775715 0.02968176 -0.012393583 -0.09554867
-0.063537806 0.059956774 0.093984775 -0.009267316 -0.002625348 0.0811254 0.09742249 0.05300484
0.019367734 0.0986801 0.028847447 -0.050368365 -0.060146045 -0.063663326 -0.06750553 -0.101065986
0.032411315 0.02044243 0.03527094 -0.090889625 0.027781624 0.053626787 0.016859356 0.019423248
0.08104264 -0.07012064 -0.056830354 -0.008295042 0.066629305 0.09770139 -0.036313362 -0.004166028
0.009975851 -0.006499092 -0.02527462 -0.043292064 0.06933347 0.10806817 -0.016677652 0.02471228
0.043749 -0.04388755 -0.07533545 -0.040097855 0.09321176 -0.098654404 0.04718055 -0.012618713
-0.124898024 0.09857983 -0.0778068 -0.074020445 0.06551908 -0.0030515403 0.051636055 -0.04789715
00000000: ae59 9f3c 1b3d 3cbd 6a55 27bd dc5c b8bd
00000010: 7bd2 74bd 7030 d03b 4b7a 5ebd b60a 1bbd
00000020: 3d93 bd3d 9fe8 5fbc e511 c63c 08d8 2a3d
00000030: a8c5 8bbd 2a7e 2a3d 517b babc 1c74 ae3d
00000040: 068d 2cbd 200f f1bd fdb6 4c3d 9a53 b93c
00000050: c7a1 5bbd 3ba8 05bc 2b90 76bd 30ed 1c3d
00000060: 28ec 133e 4320 c6bd e6f4 99bd 4d20 ab3d
00000070: 176b 913d fcb7 2f3d 9160 e7bd 4e40 a93c
00000080: b229 f73c b6a7 853d 79c4 6fbd 970f 803b
00000090: 3e01 80bc 8ad9 f0bd 734d acbd 3a5f 46bd
000000a0: 54f4 70bd a669 303d d417 913c 3aff 7c3d
000000b0: ead0 7cbc 7b11 80bd 5edb d13d d4d5 4d3d
000000c0: 4742 1f3d 364b d7bb ae7c 9dbd 6d05 4e3c
000000d0: 75d5 8d3c 1edb 273d d016 1c3d 6de6 bbbd
000000e0: 2dbe ac3c 2fb5 bc3c 4f9b 5a3d e915 903d
000000f0: d583 e33d e6bf 473c 5abd b23d 6007 cebd
00000100: 493f 643c ddd7 5fbd 62e1 3e3d bd0c abbd
00000110: 3d24 e63c 11e1 3d3c d9d9 a13c 0762 ccbc
00000120: 8d50 8c3d 3dd2 9ebd c184 143d 4f6f c53d
00000130: 4be1 ad3c f9f1 783d 143b 853d 8dfe 9ebd
00000140: 4c65 1e3a d4cc 233d b6b4 7a3d 902e 233d
00000150: ff1b 47bd 210c 09bb d5fd 36bd 643f e6bc
00000160: 97aa 40bd a93e 3b3c d879 7bbc db4c bcbd
00000170: 1f72 893c 5707 80bc d663 ce3d 78d2 2c3d
00000180: ba51 83bd 727e 97bd 35d9 aebd 935a f5bd
00000190: 11f9 093e 73c6 97bd effa 58bd 9ad8 46bd
000001a0: 7fa3 513c d410 d3bd bed2 f2bc 0fff 73bd
000001b0: 768d cd3b c31a 7cbd 10f3 b23c a17d 253d
000001c0: dc76 753c 3650 8a3d 6c3b 66bd c1e8 87bd
000001d0: 8787 82bd bc4b 0e3d c6aa 8c3b 2cc2 363c
000001e0: 6b1e 323d 68d6 8e3d d587 5d3d 879d ebbb
000001f0: 1354 dd3c e0a7 90bd b960 c7bd 53e3 403d
00000200: 47e0 e6bc 0415 22bd fa8c b4bd 76ea babd
00000210: e59f 5d3d f053 013d 71ea aabd e2af 573c
00000220: 3d06 57bd a1ba 33bc 55dc 0abe 79b5 bcbd
00000230: 963c 9d3d 2a27 f33c 740e 4bbc 05af c3bd
00000240: 1c20 82bd 3c95 753d 177b c03d f1d5 17bc
00000250: 080e 2cbb 1325 a63d 7185 c73d 9a1b 593d
00000260: 15a9 9e3c cb18 ca3d 7b51 ec3c 0f4f 4ebd
00000270: b35b 76bd eb61 82bd 5740 8abd affb cebd
00000280: bac1 043d e276 a73c 4378 103d 5724 babd
00000290: 4a96 e33c c3a7 5b3d a21c 8a3c 811d 9f3c
000002a0: aff9 a53d 699b 8fbd f2c6 68bd eee7 07bc
000002b0: f274 883d ab17 c83d 52bd 14bd 2d83 88bb
000002c0: c071 233c 56f6 d4bb b80c cfbc 0553 31bd
000002d0: b5fe 8d3d d852 dd3d 929f 88bc 6871 ca3c
000002e0: 2732 333d 6ec3 33bd 7949 9abd a63d 24bd
000002f0: cfe5 be3d 520b cabd 6440 413d b8be 4ebc
00000300: 89ca ffbd 39e4 c93d 2c59 9fbd 0898 97bd
00000310: de2e 863d 5afc 47bb 5480 533d cd2f 44bd

h.bias f4 [2]
0.085223526 -0.005433255
00000000: ac89 ae3d 7209 b2bb

ax f4 [100, 21]
-0.2080232 -0.03562378 0.21724156 0.13899377 0.138542 0.19762678 0.17405428 -0.07291249
0.08084969 0.21046619 0.1932877 -0.09679108 -0.026803624 -0.10949854 -0.09544571 -0.20521943
-0.15646921 -0.03315584 -0.21872187 -0.20256206 0.050242692 -0.059887312 0.048279632 0.0113100195
0.029321874 0.2149865 0.21123534 -0.15415837 0.084823765 -0.16899213 -0.18335871 0.20511074
-0.106155604 -0.09061754 0.14141569 -0.21011429 -0.10306276 0.17041266 0.063255854 -0.042339418
-0.0002940255 0.019511893 0.13148107 -0.20769516 0.17979231 0.17054822 -0.055141672 -0.0015338808
0.047637254 0.0048560766 -0.08988626 0.09401968 0.19473381 0.00893254 0.14900106 -0.21344721
0.15792632 0.05471701 0.030994564 0.13045877 -0.13444121 0.2071046 -0.055536985 -0.0520858
-0.13889101 -0.047306754 -0.10504373 -0.021857528 -0.084965326 0.047394592 -0.0930466 0.12574504
-0.16188146 0.10518374 -0.000986514 0.10610224 0.21157171 0.17440416 0.05598047 -0.034943733
0.034958713 -0.025518725 0.031732466 -0.18725023 0.015878422 0.08833183 -0.092946425 -0.040794775
-0.19917248 -0.07829862 -0.08378958 -0.09001865 -0.1773043 -0.14809158 -0.04176808 -0.0016766769
-0.10980382 -0.00058710127 -0.0018801725 -0.015276393 0.15249339 -0.014152115 -0.008393118 -0.11525965
-0.10994091 0.07917082 0.1833013 0.21560574 0.022777213 0.0850532 0.041499496 0.2152078
-0.14157481 -0.19337879 -0.21094017 0.20353276 -0.2061891 -0.019050231 -0.050025653 -0.0046343748
0.11239352 -0.20647183 0.1620361 -0.09565419 -0.012552498 0.10816824 0.024904866 -0.13458657
-0.058000546 -0.16259034 0.06749317 -0.18484893 0.123678006 -0.122568086 -0.0739442 0.042811427
-0.1285412 0.19817743 0.1427225 0.001514262 0.08047251 0.07684821 0.029429218 -0.16183622
-0.16867992 -0.14948404 -0.20600344 0.03224159 0.062191032 0.05841229 -0.020118004 0.18206857
-0.051987033 -0.07270607 -0.08686995 0.07158103 0.13931131 0.17014071 -0.030770548 0.1314646
-0.08062193 0.21484324 -6.857039e-05 -0.02614506 0.16327618 -0.1489418 0.013633021 -0.061626293
0.06552824 0.0014446223 -0.09417593 -0.2062284 0.087331675 -0.039208584 -0.17961751 -0.13541354
0.11031346 -0.18308437 0.112216026 -0.09343627 -0.10972038 0.20107172 0.05369717 0.16336784
0.109327875 -0.17808628 -0.18486588 0.09816145 -0.07132456 0.02558695 -0.08747802 -0.07587149
0.20620158 0.056033477 -0.07407188 0.1619101 0.051461518 0.20754573 -0.11025205 -0.15217519
-0.18529317 0.03888354 0.15400507 0.03315484 0.0374543 0.11302771 -0.19058914 -0.12812865
0.17891042 -0.1252103 -0.1422985 -0.2153508 0.021150598 0.08543645 -0.17321229 -0.115686625
-0.054986425 -0.10254021 -0.06530816 -0.10935497 0.15464434 0.19826715 0.10184036 0.02765821
-0.0029476834 0.13339202 -0.17281272 -0.13444868 -0.12267148 -0.14053233 -0.049360447 -0.20166379
-0.10204403 -0.058143303 0.020476796 0.14949663 0.15863843 -0.028088268 0.19095542 0.21419911
0.0021498806 -0.112414666 -0.049745373 0.21044728 0.15600802 0.12361796 0.17453437 0.02440848
-0.08078517 -0.16091208 0.12611632 -0.19699827 0.17191063 -0.16503319 -0.13593847 -0.20075762
00000000: 0904 55be 3eea 11bd 9274 5e3e 6254 0e3e
00000010: f4dd 0d3e ad5e 4a3e 493b 323e 2553 95bd
00000020: 8694 a53d 7384 573e 36ed 453e 673a c6bd
00000030: 4693 dbbc c540 e0bd 0a79 c3bd 0b25 52be
00000040: 7739 20be 6bce 07bd a0f8 5fbe 6e6c 4fbe
00000050: 48cb 4d3d 664c 75bd ddc0 453d a94d 393c
00000060: 6d34 f03c 6c25 5c3e 144e 583e b1db 1dbe
00000070: 15b8 ad3d 460c 2dbe 63c2 3bbe 8d08 523e
00000080: 1c68 d9bd b095 b9bd 46cf 103e 3328 57be
00000090: 9112 d3bd a880 2e3e 498c 813d 196c 2dbd
000000a0: 6f27 9ab9 68d7 9f3c f9a2 063e 0aae 54be
000000b0: 7a1b 383e 31a4 2e3e 3cdc 61bd 800c c9ba
000000c0: 481f 433d b91f 9f3b 4a16 b8bd 648d c03d
000000d0: 4d68 473e ca59 123c bc93 183e e891 5abe
000000e0: 70b7 213e f21e 603d 50e8 fd3c fc96 053e
000000f0: f5aa 09be 3a13 543e c07a 63bd eb57 55bd
00000100: 7239 0ebe bac4 41bd 2b21 d7bd 8f0e b3bc
00000110: 4d02 aebd d520 423d 378f bebd 4fc3 003e
00000120: 41c4 25be 936a d73d eb4d 81ba 224c d93d
00000130: 41a6 583e 0197 323e c74b 653d 2921 0fbd
00000140: de30 0f3d a50c d1bc e7f9 013d 86be 3fbe
00000150: 7713 823c 52e7 b43d b25a bebd 6c18 27bd
00000160: dff3 4bbe 075b a0bd df99 abbd b35b b8bd
00000170: 428f 35be 52a5 17be 0215 2bbd f1c3 dbba
00000180: d3e0 e0bd b3e7 19ba 1f70 f6ba d649 7abc
00000190: 3a27 1c3e 46de 67bc 4a83 09bc 400d ecbd
000001a0: b328 e1bd 5024 a23d 56b3 3b3e c0c7 5c3e
000001b0: 4797 ba3c 5f30 ae3d 60fb 293d 6f5f 5c3e
000001c0: fdf8 10be 1705 46be b300 58be e46a 503e
000001d0: 3c23 53be 3b0f 9cbc b3e7 4cbd f4db 97bb
000001e0: 932e e63d 5a6d 53be cbec 253e 58e6 c3bd
000001f0: fea8 4dbc 4f87 dd3d 4a05 cc3c 10d1 09be
00000200: fb91 6dbd 157e 26be dc39 8a3d 0a49 3dbe
00000210: e54a fd3d fa04 fbbd 0f70 97bd 095b 2f3d
00000220: 4ea0 03be 06ef 4a3e d925 123e 347a c63a
00000230: c5ce a43d 9862 9d3d 8b15 f13c 65b8 25be
00000240: 6eba 2cbe 5812 19be 91f2 52be c20f 043d
00000250: 06bc 7e3d ba41 6f3d 83ce a4bc 2f70 3a3e
00000260: 5bf0 54bd ece6 94bd dfe8 b1bd 1399 923d
00000270: a0a7 0e3e 5e39 2e3e 8412 fcbc a89e 063e
00000280: 1c1d a5bd deff 5b3e 73cd 8fb8 2a2e d6bc
00000290: df31 273e 3384 18be 095d 5f3c da6b 7cbd
000002a0: ab33 863d 7b59 bd3a 4fdf c0bd 8a2d 53be
000002b0: f3da b23d 2e99 20bd a7ed 37be d9a9 0abe
000002c0: 06ec e13d 787a 3bbe 84d1 e53d 845b bfbd
000002d0: 14b5 e0bd bfe5 4d3e 90f1 5b3d e649 273e
000002e0: 4be7 df3d 405c 36be 7b4d 3dbe df08 c93d
000002f0: 9c12 92bd b99b d13c ad27 b3bd 8362 9bbd
00000300: 8226 533e 5c83 653d ffb2 97bd c3cb 253e
00000310: 50c9 523d de86 543e d4cb e1bd d0d3 1bbe
00000320: 7ebd 3dbe 5944 1f3d 81b3 1d3e 5fcd 073d
00000330: ae69 193d 127b e73d cd29 43be 2834 03be
00000340: 4b34 373e 2137 00be b3b6 11be ec84 5cbe
00000350: 0544 ad3c 4ef9 ae3d 905e 31be 1ced ecbd
00000360: 7239 61bd 9a00 d2bd 49c0 85bd 80f5 dfbd
00000370: 165b 1e3e 8b06 4b3e ae91 d03d 7893 e23c
00000380: ec2d 41bb eb97 083e d1f5 30be eaac 09be
00000390: 2f3b fbbd b5e7 0fbe 2e2e 4abd f480 4ebe
000003a0: 76fc d0bd ac27 6ebd f4be a73c a515 193e
000003b0: 1d72 223e 5e19 e6bc d189 433e 0357 5b3e
000003c0: 03e5 0c3b a939 e6bd cec1 4bbd 7e7f 573e
000003d0: 91c0 1f3e 6a2b fd3d 23b9 323e 4bf4 c73c
000003e0: b272 a5bd 23c6 24be a324 013e eab9 49be
000003f0: 5709 303e 76fe 28be 7433 0bbe 6893 4dbe

ax f4 [2, 100]
0.019451942 -0.045956712 -0.04085294 -0.090020865 -0.059771042 0.0063534304 -0.054315846 -0.03785201
0.09256599 -0.013666301 0.024178455 0.04170993 -0.06824809 0.041624226 -0.02276388 0.0851824
-0.042126678 -0.11770463 0.0499792 0.022622872 -0.05362108 -0.008157785 -0.060196083 0.038312137
0.14445555 -0.09674122 -0.07517414 0.0835577 0.07100504 0.04290007 -0.112977155 0.020660546
0.030171249 0.06526129 -0.05853698 0.0039081085 -0.015625592 -0.11760242 -0.0841321 -0.04843066
-0.05882676 0.043069504 0.017711557 0.06176684 -0.015430668 -0.06253334 0.10246919 0.05025275
0.038881566 -0.006570245 -0.076897964 0.012574536 0.017313698 0.04098045 0.038107693 -0.091748096
0.021086777 0.023035614 0.05337077 0.07035429 0.11109129 0.012191748 0.08727522 -0.100600004
0.013931104 -0.054649223 0.04660166 -0.08352039 0.028093452 0.011589305 0.019757198 -0.024949087
0.06851301 -0.077549435 0.036259416 0.09640371 0.021225592 0.060777638 0.06505409 -0.077633955
0.0006042316 0.03999026 0.061207496 0.039839327 -0.048610684 -0.002091177 -0.044675667 -0.028106399
-0.047037687 0.011428514 -0.015348874 -0.091943465 0.01677805 -0.0156285 0.10077636 0.042192906
-0.064120725 -0.073971644 -0.08537523 -0.11980166 0.13473918 -0.07410898 -0.052973684 -0.04854641
0.012795328 -0.10305944 -0.029641505 -0.059569415 0.006272967 -0.06154896 0.021844417 0.040403012
0.014981952 0.0675358 -0.056209013 -0.06636191 -0.06373506 0.034740195 0.0042928187 0.011154693
0.04348604 0.069744885 0.054084618 -0.0071904096 0.027017629 -0.070632696 -0.09735245 0.047091793
-0.028183116 -0.039570823 -0.08815952 -0.09126751 0.054107565 0.03157419 -0.083454974 0.013164492
-0.052496184 -0.010969789 -0.13560612 -0.09214301 0.076775715 0.02968176 -0.012393583 -0.09554867
-0.063537806 0.059956774 0.093984775 -0.009267316 -0.002625348 0.0811254 0.09742249 0.05300484
0.019367734 0.0986801 0.028847447 -0.050368365 -0.060146045 -0.063663326 -0.06750553 -0.101065986
0.032411315 0.02044243 0.03527094 -0.090889625 0.027781624 0.053626787 0.016859356 0.019423248
0.08104264 -0.07012064 -0.056830354 -0.008295042 0.066629305 0.09770139 -0.036313362 -0.004166028
0.009975851 -0.006499092 -0.02527462 -0.043292064 0.06933347 0.10806817 -0.016677652 0.02471228
0.043749 -0.04388755 -0.07533545 -0.040097855 0.09321176 -0.098654404 0.04718055 -0.012618713
-0.124898024 0.09857983 -0.0778068 -0.074020445 0.06551908 -0.0030515403 0.051636055 -0.04789715
00000000: ae59 9f3c 1b3d 3cbd 6a55 27bd dc5c b8bd
00000010: 7bd2 74bd 7030 d03b 4b7a 5ebd b60a 1bbd
00000020: 3d93 bd3d 9fe8 5fbc e511 c63c 08d8 2a3d
00000030: a8c5 8bbd 2a7e 2a3d 517b babc 1c74 ae3d
00000040: 068d 2cbd 200f f1bd fdb6 4c3d 9a53 b93c
00000050: c7a1 5bbd 3ba8 05bc 2b90 76bd 30ed 1c3d
00000060: 28ec 133e 4320 c6bd e6f4 99bd 4d20 ab3d
00000070: 176b 913d fcb7 2f3d 9160 e7bd 4e40 a93c
00000080: b229 f73c b6a7 853d 79c4 6fbd 970f 803b
00000090: 3e01 80bc 8ad9 f0bd 734d acbd 3a5f 46bd
000000a0: 54f4 70bd a669 303d d417 913c 3aff 7c3d
000000b0: ead0 7cbc 7b11 80bd 5edb d13d d4d5 4d3d
000000c0: 4742 1f3d 364b d7bb ae7c 9dbd 6d05 4e3c
000000d0: 75d5 8d3c 1edb 273d d016 1c3d 6de6 bbbd
000000e0: 2dbe ac3c 2fb5 bc3c 4f9b 5a3d e915 903d
000000f0: d583 e33d e6bf 473c 5abd b23d 6007 cebd
00000100: 493f 643c ddd7 5fbd 62e1 3e3d bd0c abbd
00000110: 3d24 e63c 11e1 3d3c d9d9 a13c 0762 ccbc
00000120: 8d50 8c3d 3dd2 9ebd c184 143d 4f6f c53d
00000130: 4be1 ad3c f9f1 783d 143b 853d 8dfe 9ebd
00000140: 4c65 1e3a d4cc 233d b6b4 7a3d 902e 233d
00000150: ff1b 47bd 210c 09bb d5fd 36bd 643f e6bc
00000160: 97aa 40bd a93e 3b3c d879 7bbc db4c bcbd
00000170: 1f72 893c 5707 80bc d663 ce3d 78d2 2c3d
00000180: ba51 83bd 727e 97bd 35d9 aebd 935a f5bd
00000190: 11f9 093e 73c6 97bd effa 58bd 9ad8 46bd
000001a0: 7fa3 513c d410 d3bd bed2 f2bc 0fff 73bd
000001b0: 768d cd3b c31a 7cbd 10f3 b23c a17d 253d
000001c0: dc76 753c 3650 8a3d 6c3b 66bd c1e8 87bd
000001d0: 8787 82bd bc4b 0e3d c6aa 8c3b 2cc2 363c
000001e0: 6b1e 323d 68d6 8e3d d587 5d3d 879d ebbb
000001f0: 1354 dd3c e0a7 90bd b960 c7bd 53e3 403d
00000200: 47e0 e6bc 0415 22bd fa8c b4bd 76ea babd
00000210: e59f 5d3d f053 013d 71ea aabd e2af 573c
00000220: 3d06 57bd a1ba 33bc 55dc 0abe 79b5 bcbd
00000230: 963c 9d3d 2a27 f33c 740e 4bbc 05af c3bd
00000240: 1c20 82bd 3c95 753d 177b c03d f1d5 17bc
00000250: 080e 2cbb 1325 a63d 7185 c73d 9a1b 593d
00000260: 15a9 9e3c cb18 ca3d 7b51 ec3c 0f4f 4ebd
00000270: b35b 76bd eb61 82bd 5740 8abd affb cebd
00000280: bac1 043d e276 a73c 4378 103d 5724 babd
00000290: 4a96 e33c c3a7 5b3d a21c 8a3c 811d 9f3c
000002a0: aff9 a53d 699b 8fbd f2c6 68bd eee7 07bc
000002b0: f274 883d ab17 c83d 52bd 14bd 2d83 88bb
000002c0: c071 233c 56f6 d4bb b80c cfbc 0553 31bd
000002d0: b5fe 8d3d d852 dd3d 929f 88bc 6871 ca3c
000002e0: 2732 333d 6ec3 33bd 7949 9abd a63d 24bd
000002f0: cfe5 be3d 520b cabd 6440 413d b8be 4ebc
00000300: 89ca ffbd 39e4 c93d 2c59 9fbd 0898 97bd
00000310: de2e 863d 5afc 47bb 5480 533d cd2f 44bd

ax f4 [2]
0.085223526 -0.005433255
00000000: ac89 ae3d 7209 b2bb
